CA/weights_resnet.pth (torch, 331773 bytes, 47 tensors)

conv1.weight f4 [16, 3, 3, 3]
000000 67 02 18 bd 19 59 db 3e 78 ae ac 3e 23 5e c9 bd
       -0.037111666 0.42841414 0.3372686 -0.09832408
000010 f4 98 21 be cb c0 d8 3a e5 cf a6 3c 3d 7f 28 bd
       -0.15781003 0.0016536949 0.020362804 -0.04113697
000020 26 e2 8a be e4 4a 3b 3d 43 fc 91 3e 01 d3 95 3e
       -0.27125663 0.04572572 0.28512773 0.29262546
000030 ba 13 cf 3d 3d 71 01 be 97 fc 08 3c e4 7b b0 bd
       0.101111844 -0.12640853 0.008361003 -0.0861738
000040 01 45 de be 50 99 1b bf d7 04 93 bd f8 8a c8 3e
       -0.4341202 -0.6078081 -0.071786575 0.39168525
000050 04 75 e0 3e 36 d6 58 bd 99 54 82 bd 63 a3 80 3e
       0.43839276 -0.052938662 -0.06363792 0.25124654
000060 27 b2 8a 3e c3 c2 d6 be 94 78 e3 be 8f e0 e9 be
       0.27089044 -0.41945466 -0.4442793 -0.45679137
000070 7d 10 41 be 82 f3 b6 bb d1 b6 87 be 01 13 10 be
       -0.18853946 -0.0055832276 -0.26506665 -0.1406975
000080 0e 95 91 3e 67 0c 85 be 2e ee 0e 3e 20 54 05 3f
       0.28434032 -0.25986025 0.13958046 0.5208149
000090 29 69 9d bd 05 0d 87 3e 55 fa 8c 3e 9b f3 56 be
       -0.07686073 0.2637712 0.27534738 -0.20991366
0000a0 6a 5b 8c bd c6 cf fe 3e 6d b3 1b be 44 9d 71 3e
       -0.06853373 0.49767894 -0.15205164 0.23595148
0000b0 3c d0 85 3d 81 18 31 be db 45 6e 3e e2 d3 ef 3d
       0.06533858 -0.17294504 0.23268835 0.11710335
0000c0 1d 6c b3 be 6e 8d b5 be 28 e7 1c 3f c8 f7 db be
       -0.3504342 -0.35459465 0.61290216 -0.4296248
0000d0 d9 c1 a3 be cd c9 2c 3e 8c 0e 01 be 7e 0d 96 bc
       -0.31983832 0.16873856 -0.12603205 -0.01831698
0000e0 5f ab b6 3e 83 17 97 be 2e d1 ea be f0 64 cb be
       0.3567762 -0.29510126 -0.45862716 -0.39725447
0000f0 a9 4e a7 3e 36 6e 89 3e ef 61 9a 3e ab cd 64 be
       0.326772 0.26841897 0.30152842 -0.22344081
000100 8a 53 35 bd 0a 17 03 3e 3d f5 5b 3e f6 1b 7d be
       -0.044269122 0.12801757 0.2148027 -0.24717698
000110 79 be 89 be 4a 5b 0e bd 3f fc ad 3e d3 b4 21 3e
       -0.26903132 -0.03475503 0.3398151 0.15791635
000120 d1 23 ab be 68 f4 d2 bd 03 d7 a2 3e 3a d6 06 be
       -0.33425763 -0.10300523 0.31804666 -0.13167658
000130 8a 05 b6 be 31 32 3d 3e 6b 2f d1 3c 91 5e 40 3e
       -0.355511 0.18476178 0.025535306 0.18786074
000140 35 8a 8a 3d c5 ca b6 bc a6 1a b3 3e e4 1d c5 3e
       0.06764642 -0.022313485 0.3498127 0.38499367
000150 59 a9 9e bc e4 c2 ab 3d cd 2e ce bd 19 70 92 3e
       -0.01936786 0.08386782 -0.1006752 0.2860115
000160 23 20 26 3d 75 aa 4f 3e 89 30 6a bd e8 3f 1f be
       0.04055799 0.20279868 -0.057175193 -0.15551722
000170 da 49 7c 3e 9c 21 0c bf 2a 98 db be 5c 5f 27 be
       0.24637547 -0.54738784 -0.4288953 -0.1634497
000180 0a d7 a4 be 70 ed c4 be de e7 07 be 9e 79 5e 3e
       -0.32195312 -0.384624 -0.13272044 0.21726081
000190 44 8c 81 3e 80 56 9f 3e 54 4a a4 be 51 50 d3 bd
       0.25302327 0.31120682 -0.32087958 -0.103180535
0001a0 2b d7 b8 bd 4c fe a9 bd 2d 3d 44 3e bd 8b 99 3e
       -0.09025415 -0.083004564 0.19163962 0.29989424
0001b0 8c 81 62 be 8d f1 0e 3d 05 07 2a be 91 e0 23 be
       -0.2211973 0.03489833 -0.1660424 -0.16003634
0001c0 72 9c 83 be 84 08 21 3c ea 57 bf 3e 48 97 84 3d
       -0.25705296 0.00982869 0.3737176 0.06474167
0001d0 1e 49 3b bb a6 ff dd bd b2 56 fd 3c 6e 36 a9 be
       -0.0028577517 -0.10839777 0.030925129 -0.3304934
0001e0 5c c4 48 bd fb a0 d0 bd 23 8f b7 bd 08 27 b4 3e
       -0.049015388 -0.101869546 -0.08962848 0.35186028
0001f0 a0 53 e4 3e a5 b0 06 3e 0e 4d a7 be 81 92 c4 bd
       0.4459505 0.13153322 -0.32675976 -0.09598256
000200 7c 1e 0a be 45 27 88 bd ea ec 29 be 76 75 02 3d
       -0.13488191 -0.06648115 -0.16594282 0.0318503
000210 42 bd 53 3e 7a fd b8 3e 48 23 9e 3d 55 dd 28 be
       0.20677665 0.36130887 0.07721573 -0.16490681
000220 f2 5b 41 bd cd 76 ff 3c ed 9d 8b 3e 18 91 63 3e
       -0.047206827 0.031184578 0.27268925 0.22223318
000230 e2 c5 09 bf c8 df d7 3e f4 56 21 3e 29 ca a9 be
       -0.5381757 0.4216292 0.15755826 -0.33162048
000240 06 47 11 be 08 08 60 3e c1 02 c2 bd 29 8f 8b 3e
       -0.1418725 0.21878064 -0.094731815 0.2725766
000250 6b ac 47 3e cd c8 9b be 22 d2 22 3e 62 3d 90 bd
       0.19499366 -0.30426636 0.15900472 -0.07042958
000260 75 f1 63 be 99 d0 17 be 8c 68 17 3e 42 84 89 3d
       -0.22260077 -0.14825667 0.14785975 0.06714679
000270 c9 4d 89 3e 99 1c 05 be 1e f1 9a be e3 67 04 3f
       0.26817158 -0.1299919 -0.30262083 0.5172102
000280 62 95 71 bd 40 e8 b0 be 8c d5 eb bd 16 f0 6b 3d
       -0.058980353 -0.34552193 -0.1151534 0.05760201
000290 e7 1d e8 bd a4 df 52 be 0f 80 b9 bd 66 70 46 3d
       -0.113338284 -0.20593125 -0.09057628 0.048447035
0002a0 39 9e 19 3e d3 f5 19 bd a3 ed d0 bd bf a8 63 3e
       0.15001763 -0.037587952 -0.102015756 0.2223234
0002b0 1d f7 33 3e 33 7a 90 3d e0 55 b5 3c 07 c0 61 3d
       0.17574735 0.07054558 0.022135675 0.055114772
0002c0 9d a4 01 3e d8 0e e7 bc 12 6f 4f 3e b9 ea ee bc
       0.12660451 -0.02820532 0.20257214 -0.029164659
0002d0 67 db 65 3d ee 9c 3e 3e a0 9d 8f bd 06 b4 4c 3c
       0.05611744 0.18614551 -0.070124865 0.012494093
0002e0 4c 84 d5 bd cf 0c 16 3e 81 d2 4b 3e f0 da a1 3d
       -0.10425624 0.14653324 0.1990452 0.07903087
0002f0 2f cc fc bb c7 9e 46 3b ea fc 3d bb 09 2b 1c bb
       -0.0077147703 0.003030704 -0.002898986 -0.0023829362
000300 60 5d 95 bd d0 eb a5 3e b1 f3 8c 3e 5e ba 3c be
       -0.072932005 0.32406473 0.27529672 -0.18430468
000310 0d 37 90 be 36 86 e0 be cb 57 3a 3d 05 bf 51 3e
       -0.28167 -0.43852395 0.045493882 0.20483024
000320 52 6b 30 3d 81 61 eb 3c 3c d5 87 3e 71 fe 5e 3e
       0.0430711 0.028733017 0.26529872 0.21776749
000330 c9 83 c9 3d 08 4d 8a 3c 2f 1c 04 3d 49 c9 82 be
       0.09839589 0.016882434 0.03225344 -0.25544193
000340 12 5d a0 be 9d 03 b3 be 53 38 a6 bd 4f dc 73 bd
       -0.31321007 -0.34963694 -0.08116212 -0.059536275
000350 3c 52 2e 3e b2 c3 5f 3e 05 b9 f5 3d 29 79 30 3d
       0.17023557 0.21851996 0.1199818 0.043084297
000360 74 88 3f be ef 05 3b 3d 32 b7 bd be 5f 1f ec 3d
       -0.18704396 0.045659956 -0.3705383 0.11529421
000370 fb d4 f3 3e 62 17 c7 bd ed d5 c0 3d 87 52 f3 3e
       0.4762343 -0.09721257 0.09415803 0.475239
000380 f1 e1 2a bd d3 4e 58 bc c2 1e 73 3c a1 94 8d bb
       -0.04171938 -0.013202387 0.014838876 -0.0043206965
000390 36 66 d1 bd 81 c6 24 3e 35 4d 9c be e0 3c 26 bb
       -0.10224573 0.16091348 -0.30527654 -0.0025365874
0003a0 63 a5 98 3d c3 2b 88 be 80 79 66 3e dd 1c 99 3c
       0.0745342 -0.26595888 0.22507286 0.01869052
0003b0 b6 6e 0d 3e 97 81 bb bd c4 6d 00 3e 30 c5 0a 3e
       0.13811764 -0.09155577 0.12541872 0.13551784
0003c0 b9 c5 07 3d 39 a0 fc bd 25 9b e0 bd a8 15 80 3e
       0.033147547 -0.123352475 -0.109670915 0.25016522
0003d0 18 72 7e 3d c9 9e 0b 3e bd 67 05 be 3d 47 5e 3d
       0.062120527 0.1363479 -0.13027854 0.054267157
0003e0 6f 08 f5 bd 34 08 80 bd c0 11 c0 be f1 e8 ba 3d
       -0.11964499 -0.062515646 -0.37513542 0.09126461
0003f0 e9 aa f1 3d 61 aa 75 3e fd a9 07 be 1e 96 a6 3c
       0.11800177 0.23990776 -0.13248439 0.020335253

bn1.weight f4 [16]
000000 c7 cd 90 3f 80 02 8a 3f 22 52 8b 3f 92 32 80 3f
       1.1312798 1.0782013 1.088444 1.0015433
000010 3f 01 6e 3f cc f8 86 3f 56 09 49 3f 3f 2a 4d 3f
       0.9297065 1.0544677 0.7852987 0.8014259
000020 b1 73 69 3f 33 a0 49 3f 81 a8 7c 3f b5 3b 4b 3f
       0.91192156 0.7876007 0.98694617 0.7938798
000030 85 75 54 3f 6d c7 46 3f b3 d0 79 3f d7 2d 84 3f
       0.8299182 0.7764805 0.97584075 1.0326489

bn1.bias f4 [16]
000000 26 80 d2 bd 7f b6 e1 3d 21 03 71 3e c6 9b a4 3d
       -0.102783486 0.110211365 0.2353635 0.08037524
000010 df 6a c4 3d 4c 53 8c 3d 3d 7f 3c bd a3 b1 0f be
       0.095906965 0.06851825 -0.04601978 -0.14032607
000020 bf 21 1c bd f7 4e 37 bc 97 41 9e bd 1a 6f 05 be
       -0.03811812 -0.01118826 -0.07727354 -0.13030663
000030 97 15 37 be 61 6c c9 bd 61 18 ec bb c8 99 10 3e
       -0.1787933 -0.09835125 -0.0072050546 0.14121163

bn1.running_mean f4 [16]
000000 ac b0 74 bc 72 5d f6 3c 4d 68 f1 3c 26 b5 8a bc
       -0.0149347 0.030073855 0.02946868 -0.016932081
000010 94 47 ab 3c cb 36 0d bc e2 9e 21 be 9b 00 9f 3c
       0.020908155 -0.008619021 -0.15783265 0.019409468
000020 85 88 9b bd ed 3e de bd 3a 44 3b 3d bf 63 25 be
       -0.075943984 -0.10851846 0.045719363 -0.16151331
000030 c6 a9 27 3e 6c 5c 2a 3e 0c bc 93 bd d0 bf 1b 3c
       0.16373357 0.16636819 -0.072136015 0.009506181

bn1.running_var f4 [16]
000000 40 0e aa 3e 03 72 9b 3e 76 ae 05 3e ed 35 35 3e
       0.33213997 0.30360422 0.13054833 0.17696352
000010 31 20 55 3e 79 b8 3b 3e f3 6e 5a 3e 70 60 31 3d
       0.20813061 0.1833209 0.21331386 0.04330486
000020 fe ed ad 3d 3e 45 dd 3d 96 19 a6 3d 3c 76 26 3e
       0.08492659 0.108042225 0.08110349 0.1625604
000030 87 87 90 3e 56 e8 68 3e e8 88 15 3e 1c a2 3c 3e
       0.282284 0.22744879 0.14603007 0.18421215

layer1.0.conv1.weight f4 [16, 16, 3, 3]
000000 ca b7 2c bd 08 6d 46 be 61 28 2f be 82 1e 74 be
       -0.042167462 -0.1937753 -0.17105247 -0.23839763
000010 cd fd 8f bd 86 09 68 3c af 09 4e be 03 f7 99 3b
       -0.070308305 0.014162427 -0.20120881 0.0046986355
000020 6f a3 2a 3d ca 9d 2f be ca 0f 84 3e 7c e0 45 bd
       0.04165977 -0.17150036 0.25793296 -0.048309788
000030 2f 48 aa bd c6 2e 05 3e 4e 7c 5e 3e 57 b9 db be
       -0.08314549 0.13006124 0.21727106 -0.4291484
000040 fc a3 8d 3d 0f 6b 06 3e e3 67 1b 3e 8c 74 ef 3d
       0.06916043 0.13126777 0.15176348 0.116921514
000050 c2 65 c4 3c 96 65 e1 3d 29 a4 25 3d cd 29 1b bc
       0.023974303 0.11005704 0.04043976 -0.009470415
000060 3c da ca bc 12 f7 b3 3c b0 e6 8a bc 5e 8d be 3d
       -0.024762265 0.021968398 -0.016955703 0.093043074
000070 35 82 37 3d 2d 51 7b bd 6a 42 d0 3d 36 5d 41 3e
       0.04480191 -0.061356712 0.101689175 0.18883213
000080 0c f6 8c 3c 5a b1 8b be db d8 cc bd d7 6c 86 3e
       0.017207168 -0.27283746 -0.100022994 0.26254913
000090 6b ec 10 3e fb 8b 55 bd a6 ad 06 bd 7a 20 e2 3d
       0.14152686 -0.05213545 -0.032880448 0.11041351
0000a0 c2 4e 12 be 39 6c ac be cb 96 38 3e 6a d2 e7 bd
       -0.14287856 -0.33676317 0.18026273 -0.1131943
0000b0 7a 92 0b be a2 1b cf ba 0d 09 4c 3e a6 57 8b bd
       -0.13630095 -0.0015801082 0.19925328 -0.06803827
0000c0 66 9e 99 bc 20 1a 2f 3e f6 e3 07 be b5 00 8d 3e
       -0.018752288 0.1709981 -0.13270554 0.27539602
0000d0 7c c9 2a bc 04 a7 66 be b1 a7 f1 bd 45 13 7e 3e
       -0.010424014 -0.22524649 -0.11799563 0.24812038
0000e0 c3 61 18 bb 16 9e e9 3d a9 2b a4 3b 04 97 b1 3d
       -0.002325163 0.114071056 0.0050100875 0.08671382
0000f0 46 26 0b 3d 37 de c1 bd f6 0e 60 be 89 73 1a 3d
       0.033972047 -0.09466212 -0.21880707 0.03770784
000100 90 46 8d 3e b1 b9 6d bd 30 a7 ec bd 7f 64 2e bc
       0.27592897 -0.058038417 -0.11555326 -0.010644077
000110 5f ac 08 be 7c dd e4 3b fd c8 43 bd 89 88 f1 3d
       -0.13347004 0.006984411 -0.0477991 0.1179362
000120 b9 77 bd bd f0 eb f0 3c ab 9e ec bd be 57 3e 3e
       -0.09251351 0.029409379 -0.11553701 0.18588158
000130 00 81 80 bc 38 b8 3e bd b1 6c d2 bd 47 39 b8 bc
       -0.015686512 -0.046562403 -0.102746375 -0.02248825
000140 77 0f 36 3c cf b1 0a bd 9f 48 06 bd 51 75 cc bd
       0.011112086 -0.033860978 -0.0327841 -0.09983314
000150 cc 53 39 be aa f4 41 3d 5d 04 13 be 89 1b 20 3e
       -0.18098372 0.04735247 -0.14357133 0.15635504
000160 65 dd 74 3d 0e 24 17 be e9 75 17 3e 26 23 47 3d
       0.05978145 -0.14759848 0.14791073 0.048617505
000170 7b 00 8a be c2 1c 4d 3d 97 59 b6 3c 04 2b ac 3c
       -0.26953492 0.050076254 0.022259517 0.021016605
000180 89 57 32 bd 71 d6 66 3d 14 68 14 3e 0b 01 c4 3d
       -0.04354051 0.05635685 0.14492828 0.095705114
000190 fc e5 c5 3d 51 73 00 be 7d d0 32 3d 8c d2 8f bd
       0.09663007 -0.1254399 0.04365586 -0.070225805
0001a0 b7 d6 ca 3c 36 0e c7 3d 3c 27 b9 3d 6c 53 9a be
       0.024760587 0.097195074 0.090406865 -0.3014177
0001b0 65 6d ab bd f7 12 75 be b1 58 1d 3e 8f f4 66 3e
       -0.08370475 -0.23933016 0.15365864 0.22554229
0001c0 70 aa 0f bd b2 86 08 be b8 a2 3c be 93 08 9b 3e
       -0.03507465 -0.13332632 -0.18421447 0.3027998
0001d0 09 2e 82 3d f5 3f 9a bc 66 cd 82 3d be 5f 9f be
       0.06356437 -0.018829325 0.06386833 -0.31127733
0001e0 f2 91 43 be f2 5c dc bc 39 89 c5 3d 1b c7 58 3c
       -0.19098642 -0.026899789 0.09645314 0.013231064
0001f0 50 5e 9b bc b8 11 3d bd 52 50 95 bd 8a 46 e8 3c
       -0.01896587 -0.046159476 -0.072907105 0.028353948
000200 f0 c8 64 3d d2 91 4d 3e 8b 72 a4 3d a7 d1 08 be
       0.05585569 0.20075157 0.0802966 -0.13361226
000210 27 80 31 3e ce d0 ab 3d 55 75 15 bc ee 33 d3 bb
       0.17334042 0.08389436 -0.009122212 -0.0064453995
000220 99 e2 9f bd d1 e9 f4 bd 7e 66 9c 3d 40 11 88 bd
       -0.07806892 -0.119586594 0.07636736 -0.06643915
000230 c0 01 43 be 6a 76 53 3d 8b 8b 6c be 8a 09 be bd
       -0.19043636 0.0516266 -0.23100106 -0.09279163
000240 48 e1 f3 be 83 c4 30 be 04 55 27 be c1 5a aa be
       -0.47632813 -0.17262463 -0.16341025 -0.33272365
000250 d2 64 ce 3c a6 17 c2 bc 21 9d 95 bd ee 0b 72 3a
       0.02519456 -0.023692917 -0.073053606 0.0009233345
000260 8d 3e 47 be ec 7e 4e bd 9d 59 43 3d 77 50 f8 bd
       -0.19457455 -0.05041401 0.047692884 -0.121247225
000270 56 29 35 bd 8d ad 90 3d 00 ae a2 bd 38 ce bb bd
       -0.044228874 0.07064352 -0.07943344 -0.091701925
000280 ff 2e 64 3d a0 ad 16 3e f6 61 fc 3d 06 e5 8f 3d
       0.05570888 0.1471467 0.12323372 0.07026105
000290 67 72 55 bd 42 e6 01 3e 42 f5 58 3e f5 84 4c 3e
       -0.052111056 0.12685493 0.21187308 0.19972594
0002a0 d7 2a 31 be 50 75 f5 be b8 b5 c5 be d7 75 5c be
       -0.17301498 -0.47941065 -0.38615203 -0.21529327
0002b0 54 55 ff bd 1a 06 8b be d7 64 3e 3e f0 46 44 3e
       -0.12467447 -0.27153093 0.18593155 0.19167686
0002c0 56 05 46 bc 78 e5 2b be 0a d6 e2 3d f4 5c 70 be
       -0.012086233 -0.16786754 0.11075981 -0.23472959
0002d0 d2 65 31 3e 99 66 48 bd 6f 5d 17 bc 84 22 8c bc
       0.17323998 -0.04892597 -0.009238585 -0.017106302
0002e0 d0 9f d8 3d 2d d3 df bc ae 1e dd bd a7 7c 4c be
       0.10577357 -0.027322376 -0.10796867 -0.19969426
0002f0 7a de 2d be 97 ea 67 be 46 35 c9 3d 0e 1d df bd
       -0.169794 -0.22648083 0.09824614 -0.108942136
000300 50 e4 64 3e 67 78 b3 be ba 03 cd 3c a5 2d 24 3d
       0.2235272 -0.35052797 0.025026191 0.040082593
000310 90 25 4b be ea 0f a0 bc ab b8 87 bd 73 6c 1b bd
       -0.19838548 -0.019538838 -0.066270195 -0.037945222
000320 31 3f ce bd fe 5e df 3d 0c d0 9f be 90 f9 72 3d
       -0.100706466 0.1090679 -0.31213415 0.059320033
000330 e6 fd 4e bd b8 e8 81 be ff f9 25 3e 1e 05 56 bb
       -0.050535105 -0.25372863 0.16208647 -0.0032656859
000340 e8 55 30 be 66 a3 af 3d 96 56 13 be a5 7e 2c 3c
       -0.1722027 0.08576088 -0.14388499 0.010528241
000350 2d 86 0f be 58 09 1e 3e aa 3f 38 3d aa 63 b1 bb
       -0.14016028 0.15433252 0.04498259 -0.005413492
000360 1c fa f6 3d 69 b0 24 3e e1 47 c3 bc 7b 99 3f bc
       0.12059423 0.1608292 -0.023837985 -0.011694307
000370 a9 02 07 3d ef ed b6 3d a8 89 ec 3c d3 36 62 3e
       0.03296152 0.08932101 0.028874233 0.22091226
000380 87 9e e9 bd d2 92 89 bd 04 35 2a 3d 69 36 15 be
       -0.1140719 -0.06717457 0.041554466 -0.14571537
000390 9c ed 9b 3e b6 f4 23 be 12 c1 4f be c7 8a 56 3d
       0.3045472 -0.16011319 -0.20288494 0.052378442
0003a0 40 93 c8 3d 69 27 ef bb 02 4d 33 3e 96 ea b3 3d
       0.09793711 -0.007298399 0.17509845 0.08784978
0003b0 43 ec 0e be 62 e0 ff bc 4b 0e 8e bc c4 d9 a2 bd
       -0.13957314 -0.031234924 -0.0173408 -0.07951692
0003c0 1c 5d ad 3e af 07 49 bd cd 3f 50 bd d3 10 45 bd
       0.338601 -0.049079593 -0.050842095 -0.048111748
0003d0 fd d5 a3 bd e3 38 e1 bd 5d 78 04 bd 22 61 ff bd
       -0.079997994 -0.109971784 -0.03234135 -0.124696985
0003e0 6d 6e f3 3b 95 46 86 be a5 cc e1 bd 29 dc e5 bc
       0.0074289353 -0.26225725 -0.11025361 -0.028059082
0003f0 ad 60 a7 3d a6 3a 3a bd 6c 30 e6 3c 24 07 0b 3e
       0.08172736 -0.045466088 0.028099261 0.13576943

layer1.0.bn1.weight f4 [16]
000000 55 9b 75 3f 55 0c 85 3f 52 f9 86 3f bb f3 58 3f
       0.9594014 1.0394388 1.0544837 0.84746903
000010 f4 6b 98 3f 17 66 72 3f 05 08 7c 3f 77 26 85 3f
       1.1907945 0.94687027 0.98449737 1.0402364
000020 3c 9d 84 3f f0 d1 60 3f ba 7f 7d 3f da 63 7d 3f
       1.0360484 0.8782034 0.9902302 0.98980486
000030 00 41 8b 3f 14 b5 81 3f 0c 20 42 3f d3 28 75 3f
       1.0879211 1.0133386 0.7583015 0.9576542

layer1.0.bn1.bias f4 [16]
000000 26 56 8d bc b2 21 5c bc a5 20 01 bd 74 0f 1b be
       -0.017252993 -0.013435768 -0.031525273 -0.15142614
000010 e9 72 8c bd 4d 8e 01 3d bc 91 c9 bd 1d 9a 8e 3d
       -0.06857855 0.03162985 -0.0984225 0.069629885
000020 e3 81 63 3e 2c ac 9b bd 8a 09 b1 bd ae 85 d1 bd
       0.22217517 -0.076011986 -0.086443976 -0.102305755
000030 3c 7e 48 bd 20 fc 5f bd c1 7f 43 be 90 16 3c be
       -0.04894851 -0.054683805 -0.19091703 -0.18367982

layer1.0.bn1.running_mean f4 [16]
000000 e5 7e 85 be b5 0c b3 bf d8 93 b5 be 47 b9 dd bd
       -0.26073375 -1.3988253 -0.35464358 -0.108263545
000010 a3 12 53 bf 3e 65 69 bf f3 1d b3 be 6c f5 86 bf
       -0.8245031 -0.9117011 -0.34983787 -1.0543647
000020 96 f0 fe be 2a a4 6f 3f 48 65 9d bf 4c 20 91 bd
       -0.49792928 0.9360987 -1.2296534 -0.07086238
000030 01 65 52 bf d1 fc ba 3e f7 ed 15 3e b5 11 9b bc
       -0.8218537 0.3652101 0.14641558 -0.018929342

layer1.0.bn1.running_var f4 [16]
000000 e7 a7 aa 3f 75 0f 10 40 82 78 d0 3f c8 0d 8a 3f
       1.333249 2.2509434 1.6286776 1.0785456
000010 7e db e1 3f 8a 17 ec 3f 61 ad 94 3f a2 df 11 40
       1.7645109 1.8444684 1.1615411 2.2792745
000020 37 73 15 40 ce 7b 8c 3f 16 aa 1a 40 b8 5d 90 3f
       2.3351572 1.0975282 2.4166312 1.1278601
000030 f8 d6 c6 3f 24 93 d8 3f 8b cf 9d 3f 87 eb 48 3f
       1.5534353 1.6919904 1.2328962 0.78484386

layer1.0.conv2.weight f4 [16, 16, 3, 3]
000000 a2 9c dd 3e 39 d6 ad bd 95 f8 a0 bd 67 a1 11 3c
       0.43283564 -0.08488125 -0.07859913 0.008888579
000010 3a 11 38 3e bd 52 3b 3d be c0 19 be a2 24 c2 bd
       0.17975321 0.045733202 -0.15014932 -0.094796434
000020 83 b4 9d 3d 5a a9 c9 bd d9 01 bf 3d df 18 9a 3c
       0.077004455 -0.09846754 0.09326524 0.018810688
000030 85 78 6d be 9f 8a 3b bd 7b ad 60 3e d7 dd 40 3e
       -0.23190506 -0.045786496 0.21941178 0.18834625
000040 99 d4 87 ba f0 b2 34 be 29 49 22 bd cb b6 43 bd
       -0.0010363042 -0.17646384 -0.039620552 -0.047781747
000050 57 3d 8b 3d cf ac e7 be 20 09 e0 bd aa 23 c5 bd
       0.06798809 -0.4524903 -0.109392405 -0.09625943
000060 4d b3 b8 3d 40 c7 5c be be 12 8f bd 03 4a 2f be
       0.09018574 -0.21560383 -0.06985997 -0.17118077
000070 59 d8 b9 bd dd 9a 84 bc 43 14 5e bd 3a d0 b4 bd
       -0.09074468 -0.016187126 -0.05421854 -0.088287786
000080 2f 32 68 3c a0 5a 94 bd 8c bb 39 3e 3f 2c c8 bb
       0.014172121 -0.07243848 0.1813795 -0.00610879
000090 a2 03 55 3e 87 70 43 3d 39 d8 67 bd 62 87 24 be
       0.20802167 0.047714736 -0.05660269 -0.1606727
0000a0 f9 4f 4e be 21 a6 1a be eb 32 56 be 39 66 35 be
       -0.20147695 -0.15102436 -0.20917861 -0.17714776
0000b0 8f 8e 8e be 84 f9 f1 bc bc ff 1f 3d cb 57 3b 3d
       -0.2784314 -0.029537924 0.039062247 0.045738023
0000c0 27 4b 10 3e 32 1c be 3d 36 2f de 3c ca 67 c1 3b
       0.14091168 0.092827216 0.027122121 0.005902265
0000d0 6f 9f 67 3d b1 54 68 3e 16 0e ce bd 55 db 50 bb
       0.056548532 0.22688557 -0.100612804 -0.0031869013
0000e0 8c e9 d9 bd 0e e4 19 be 33 bf 9b bd 43 96 e7 3c
       -0.10640249 -0.15028402 -0.07604828 0.028269893
0000f0 9d f6 f2 3d 87 68 02 3e f3 8d b8 3d 99 52 4b be
       0.11863444 0.12735187 0.0901145 -0.19855727
000100 67 85 ae bd 54 91 62 3e 34 0b 32 3d 4a 29 55 3d
       -0.08521538 0.22125751 0.043467715 0.05204133
000110 1d 95 a7 3d 06 c9 9b be 7e 20 2a be 64 fa b3 bd
       0.08182738 -0.30426806 -0.16613957 -0.087879926
000120 d8 aa 3f bd 90 03 15 be c5 39 75 3d 88 63 92 3e
       -0.04679379 -0.1455214 0.059869546 0.2859156
000130 39 26 d4 bc 7e 5b fe 3d a1 c8 fd bd 9c b5 88 3e
       -0.025897132 0.124197945 -0.123917826 0.26701057
000140 50 5e 1d 3e 66 33 ae 3c f5 df ad 3d 0d 9c a7 bd
       0.15368009 0.021264743 0.08489982 -0.08184061
000150 f5 6c 26 be 97 b8 11 ba 35 6b ab bd c2 87 97 be
       -0.16252501 -0.0005558817 -0.083700575 -0.29595762
000160 11 bd 2a 3b a1 3d 3e 3e 17 f6 2d be 27 f3 78 bd
       0.0026052634 0.18578197 -0.16988407 -0.060778763
000170 48 20 5b 3e 9f cb 80 bb 5f fb 90 3e e4 ea 3c 3d
       0.21399033 -0.0039305235 0.2831678 0.046122447
000180 44 2d fb 3d 3f 03 a4 3d 90 46 3f 3e 79 e2 a0 bd
       0.12264493 0.08008432 0.18679261 -0.07855696
000190 ca b0 6f bd cd bb 1b be dc 8e e7 3c 5f 2c e0 bc
       -0.05851821 -0.15208359 0.028266363 -0.027364908
0001a0 ad 83 20 be e3 4f 2c be 92 f8 29 3c 36 4d bc bc
       -0.1567523 -0.1682735 0.010374205 -0.022986036
0001b0 ef f6 4d be 73 93 1f be 8e e4 95 bd b0 c3 77 3c
       -0.20113729 -0.15583591 -0.07318984 0.015122339
0001c0 16 5a 98 be fc 7e 3b be 69 9d ee 3c 03 c3 93 bc
       -0.2975623 -0.1831016 0.029127793 -0.018037325
0001d0 11 61 da bd e1 8f 45 bd 8c 89 b4 3d 4b 9e d5 bb
       -0.10663045 -0.048232917 0.088152975 -0.006519114
0001e0 c8 e3 fc 3c cb 9b 9f bd 64 42 a7 3d 66 12 07 3d
       0.030870333 -0.07793387 0.0816696 0.03297653
0001f0 57 24 c5 bd 66 75 2f be dd 64 35 3e 43 5e 0f 3e
       -0.09626072 -0.17134628 0.17714258 0.14000802
000200 0f af 48 be 65 92 3a bd b7 0d de 3d e0 b4 60 be
       -0.1959803 -0.04554977 0.1084246 -0.21943998
000210 0c 84 92 3b 7c f1 50 3d c7 4b b9 bd 9d 41 8c bc
       0.0044713076 0.051011547 -0.090476565 -0.01712113
000220 26 12 1a 3d 93 6c 92 bd f6 88 e6 3d 0b 47 b3 bd
       0.037614964 -0.07149615 0.11256592 -0.08753785
000230 53 63 4e 3d 54 0a 9b bc 42 86 23 bd 49 d9 40 3e
       0.05038769 -0.018925823 -0.03992296 0.18832888
000240 67 4d 2a bc 1e c0 20 3d 2d 23 bc 3d 6a 83 41 3e
       -0.010394431 0.039245717 0.09186397 0.18897787
000250 ac a0 a9 bc 15 c2 bb 3d 1e 31 9f bd a6 f1 f6 bd
       -0.020706497 0.091678776 -0.0777304 -0.120578095
000260 5c c3 bc 3d 52 21 2a bc 8a 13 d1 bd ea ff 4e bd
       0.09216949 -0.010383921 -0.10208805 -0.050537027
000270 43 0e 76 3b 24 81 77 3c 73 d9 a2 bc e4 b4 dd bd
       0.0037545122 0.015106473 -0.019879078 -0.10825518
000280 50 8f 94 bd ae 44 29 3d 66 83 87 3e 76 5e af 3c
       -0.07253897 0.041325264 0.26467437 0.021407347
000290 6f 54 cd 3e 24 7d 58 3d de 38 5c 3e bf 8b c2 3d
       0.4010348 0.05285372 0.21506068 0.09499311
0002a0 8d 8d 07 be cb fd 51 be 7c 19 73 bd 33 21 29 3e
       -0.13237591 -0.2050697 -0.059350476 0.16516571
0002b0 7f e6 d8 3d 50 33 cf bd 8f c1 d6 3d 42 42 d7 3d
       0.10590839 -0.10117209 0.10486137 0.105106845
0002c0 71 56 2d be b8 18 58 bd 65 68 cf 3d ae a6 b6 bd
       -0.16927506 -0.05275795 0.101273336 -0.089185104
0002d0 54 e3 7b 3e 1f 40 97 bd 29 7a 0c be fe fc 80 bd
       0.24598438 -0.07385277 -0.13718475 -0.062982544
0002e0 c8 47 b6 bd 36 f8 84 3e 62 e5 ae 3d 8f 98 98 3e
       -0.0890041 0.2597062 0.08539845 0.29803893
0002f0 f0 17 1d 3e f1 7b b6 bc 72 ee 77 bc aa 85 57 bc
       0.15341163 -0.022275897 -0.015132533 -0.013154427
000300 5d ae 32 3e 24 c6 9a 3d 8b 71 e1 3d 98 af 6c ba
       0.17449327 0.075573236 0.11007985 -0.0009028851
000310 9a 81 00 be 1d bc 97 bd 2f 3e f5 bd a4 02 3e 3d
       -0.12549439 -0.07408927 -0.11974751 0.046389237
000320 98 c5 c2 bd 27 52 aa bc 42 1f 8a 3d 8f 62 20 bd
       -0.09510344 -0.020791126 0.06744243 -0.039156493
000330 63 80 1c be 88 48 06 3d 9d ea 0d 3c dc 8d db 3c
       -0.1528335 0.032784015 0.008661893 0.026801042
000340 39 cb e1 3d db a0 6d 3e 9c 6c d3 3d 05 f0 8f bc
       0.1102509 0.23205893 0.1032345 -0.017570505
000350 6e ab 82 3e d8 33 89 bd f2 6f 22 3e 8e 30 c0 3e
       0.25521415 -0.066993415 0.15863016 0.37537044
000360 c0 e4 a6 3c ae 69 b0 3d 1c 59 8a 3d 87 1a 7d be
       0.020372748 0.08613907 0.067552775 -0.2471715
000370 8f 10 86 3d 33 63 39 be bf f6 42 be 01 56 0a be
       0.06546127 -0.18104248 -0.19039439 -0.1350937
000380 40 fd 41 bd a5 79 b8 bd 0f 4e 55 3e af 53 26 3e
       -0.04736066 -0.09007577 0.20830558 0.1624286
000390 35 29 10 bd ff 97 e6 3d c0 62 23 bc 43 87 3e 3e
       -0.035195548 0.1125946 -0.009972274 0.18606286
0003a0 17 54 c2 bd 67 cf a4 bc bb 73 62 3e da 6f 3c be
       -0.09488695 -0.020118428 0.2211446 -0.18402043
0003b0 28 a3 3e be 73 be 05 3d cd b4 1b be 9e a1 be bd
       -0.18616927 0.03265233 -0.15205689 -0.0930817
0003c0 37 59 ed 3d 73 fa ac bb e1 62 6f bb ab eb 3d 3d
       0.11589282 -0.0052788793 -0.0036527442 0.04636733
0003d0 d9 f4 74 be 8b ea 43 bd da 48 3f 3e 7c b5 2b bd
       -0.23921527 -0.0478311 0.18680134 -0.041921124
0003e0 ae a2 0a bd 3e 45 a1 bd e7 da bb 3e 8b 51 d0 3d
       -0.03384655 -0.07874535 0.36690447 0.10171803
0003f0 a5 74 25 3e 97 48 41 bd a7 cf 15 3e 8e 0a d0 3d
       0.16157778 -0.047188368 0.14629994 0.10158263

layer1.0.bn2.weight f4 [16]
000000 8b b5 8a 3f 42 11 64 3f 4f b5 81 3f 04 89 8c 3f
       1.0836653 0.89088833 1.0133456 1.0979314
000010 e7 14 a0 3f 27 c3 83 3f b8 03 ad 3f ec ba 83 3f
       1.2506379 1.0293931 1.351676 1.0291419
000020 f1 09 97 3f c6 b8 82 3f 7b 1a 6a 3f 28 0b 7e 3f
       1.1799909 1.0212638 0.91446656 0.99235773
000030 30 e5 68 3f 98 22 9c 3f 2a 77 7b 3f 1a cb 8a 3f
       0.9097471 1.2198057 0.98228705 1.0843232

layer1.0.bn2.bias f4 [16]
000000 42 da 3f be 58 d9 01 be 2f 04 32 be c1 dd 6c bd
       -0.18735602 -0.12680566 -0.17384408 -0.05782867
000010 4a 2d d9 3d e6 a2 e5 bc 42 20 c4 3d f4 8e ab bd
       0.10604341 -0.028031778 0.09576465 -0.083768755
000020 7f cd 78 bd 08 4a c2 bc ce 27 f8 ba e2 be 53 3d
       -0.06074285 -0.023716941 -0.0018932761 0.051695712
000030 bf 59 8b be 89 73 d5 bd ba 78 fb bd 62 f8 85 3c
       -0.27216908 -0.10422427 -0.12278886 0.01635379

layer1.0.bn2.running_mean f4 [16]
000000 c3 97 48 bf 87 2d 61 3f 12 bb 41 bf bd 5a 4a bf
       -0.7835657 0.87960094 -0.7567607 -0.79044706
000010 d2 58 d2 be 1c b6 a3 be 3d bd f3 bd 46 70 bc bd
       -0.4108339 -0.31974876 -0.11901329 -0.09201102
000020 c5 5c ec be 5f 71 99 bf 06 8d 5a be 00 63 b4 be
       -0.46164528 -1.1987723 -0.21342859 -0.3523178
000030 d1 f3 46 bd 9c cb 1d 3e da d4 04 3f d5 57 83 be
       -0.048572365 0.15409702 0.51887286 -0.25652948

layer1.0.bn2.running_var f4 [16]
000000 02 c0 a4 3f 73 e8 48 3f 53 38 59 3f 86 60 b7 3f
       1.2871096 0.7847969 0.8485157 1.4326332
000010 a2 5c 86 3f 10 03 91 3f 33 43 56 3f 1a c2 4a 3f
       1.0497019 1.132906 0.8369629 0.79202425
000020 5e 47 2e 3f cd 04 af 3f 3e aa fb 3e 93 ef 94 3f
       0.6807765 1.367334 0.49153322 1.1635612
000030 d0 cb ad 3f 6b 94 6c 3f a0 c8 3e 3f c2 f1 95 3f
       1.3577824 0.9241397 0.7452488 1.1714404

layer2.0.conv1.weight f4 [32, 16, 3, 3]
000000 90 85 c6 bd ce 2b 53 bd 68 5e 34 bd 85 4e b9 3c
       -0.09693444 -0.051555447 -0.044035345 0.022620449
000010 0f eb 9f 3d 1f 4a af 3d 30 7b a3 bc 53 a3 cc 3d
       0.07808506 0.08559059 -0.019956201 0.09992089
000020 0d 49 b7 3d c4 7d df 3d cf ab b7 3d e2 d4 a4 bd
       0.0894948 0.1091266 0.08968317 -0.08048417
000030 3e db 73 3c a5 c7 12 bd 15 bd 2e 3d 10 ae 51 bd
       0.014883814 -0.035834927 0.04266079 -0.05119139
000040 ca b9 bc bb af 85 93 bd ef f0 b8 be 3a d8 85 bc
       -0.0057594525 -0.072032325 -0.36121318 -0.016338456
000050 ae 76 b5 3d 8b cb c6 bd 64 f2 eb 3d 81 79 63 3d
       0.08860527 -0.097067915 0.11520842 0.055535797
000060 cb 88 da bd 63 44 01 bc c3 64 ad bd 46 70 17 3e
       -0.106706224 -0.00788984 -0.084664844 0.14788923
000070 60 79 1a 3e 56 55 e2 3d 41 22 32 bd 7d 68 72 3d
       0.15085363 0.11051433 -0.0434897 0.05918168
000080 42 55 0d 3e 58 96 e8 bc 11 5d ac 3c a0 80 d5 3d
       0.13802055 -0.028392002 0.021040471 0.10424924
000090 27 e6 ac b9 85 bb 0c 3e f5 6d b9 bb 50 16 98 bd
       -0.00032977873 0.13743408 -0.00565886 -0.07426131
0000a0 e4 b3 d5 3c 70 ad b4 3d ac 43 ef bd 2c f7 be bd
       0.026086755 0.08822143 -0.11682829 -0.09324488
0000b0 af 51 4f bc 7f a2 01 be c8 d6 d0 bd d3 00 00 be
       -0.012653752 -0.12659644 -0.10197216 -0.12500314
0000c0 45 b6 4f be fa 8d 9f bd a6 54 3e be db 71 d2 bd
       -0.20284374 -0.07790752 -0.18586978 -0.102756225
0000d0 3b 69 24 be eb 85 bb bb b6 b7 1c 3d 76 ba 06 3e
       -0.16055767 -0.0057227514 0.038261138 0.13157067
0000e0 69 e2 1f 3d 85 63 76 3d 5c d6 4b 3e da 7b 04 be
       0.03903428 0.060153503 0.1990599 -0.1293787
0000f0 54 37 b6 3d f9 75 00 bd 62 2a 51 3c eb 8a 72 bd
       0.08897272 -0.031362507 0.0127664525 -0.059214514
000100 1d 0c ae bd df de df bb 2f a2 68 3d 0f 5e 9a bd
       -0.08498404 -0.006831988 0.056795295 -0.075374715
000110 f9 e6 12 be 9b 29 f4 3d 1a c1 4b 3d d5 95 58 bd
       -0.14345922 0.11921998 0.049744703 -0.052877266
000120 a8 27 40 bd 4d 16 3a 3d 06 0e 08 3d 4a f2 16 be
       -0.04691282 0.045431424 0.0332165 -0.14740863
000130 c1 dc 5b be 30 e3 30 3c a4 62 24 bd 14 95 e1 bd
       -0.2147093 0.010796353 -0.040133134 -0.110147625
000140 f9 36 c9 3b 98 f4 b8 3d e4 a4 78 bd e1 1c b9 bc
       0.0061405865 0.090310276 -0.060704127 -0.022596778
000150 e8 df be bd 2e 93 9e 3c e6 26 5b bc 95 c6 92 bc
       -0.093200505 0.01935729 -0.013375973 -0.017916957
000160 2b d2 f5 bd df 14 00 be 6e 5f a6 3d 30 3c 0e 3e
       -0.12002977 -0.12507962 0.081236705 0.13890147
000170 71 0c 41 3e 65 9b 07 3e ea f9 04 3d 21 8d a8 3d
       0.18852402 0.13242872 0.0324649 0.08230043
000180 c1 81 33 be 12 e3 12 3e f6 18 18 3e 56 bd 0b bd
       -0.17529966 0.14344433 0.14853272 -0.03411611
000190 dc 3a be bd 5b f7 c1 bd f4 56 13 3e f5 59 12 be
       -0.0928857 -0.094710074 0.14388639 -0.14292128
0001a0 cb 06 d0 bd 73 bc 4b 3c fb 38 a2 bd 09 26 0c bd
       -0.10157546 0.0124350665 -0.079210244 -0.03421596
0001b0 c0 75 a5 3d 2f 59 f7 bc ed cf 06 3e 0c 20 f4 3c
       0.080791 -0.030193893 0.13165255 0.029800437
0001c0 20 a8 0d 3d 36 ce 2c 3e 0f 05 5a 3d d9 05 e9 3c
       0.034584165 0.16875538 0.05322748 0.028445171
0001d0 74 1f 5a 3d 3d 3a 0b 3d 70 fe de 3d de 89 94 3d
       0.053252652 0.033991087 0.10888374 0.072528586
0001e0 e2 7f 3c be 1c 14 13 3e b6 fc 19 3e 9a 98 36 be
       -0.18408158 0.1436314 0.15037808 -0.1783165
0001f0 a9 ea 9f 3d a4 16 1a bd 1a c6 fe bc 96 81 78 3e
       0.0780843 -0.037619248 -0.031100322 0.24268183
000200 73 9e 43 3e 14 c4 0b be 14 c6 86 3d 17 fc 2f 3c
       0.19103412 -0.13649017 0.06580749 0.010741255
000210 b4 41 36 be 11 f1 1f bd 96 a4 2b 3e 43 10 df bd
       -0.17798501 -0.03904826 0.16762003 -0.108917736
000220 26 a6 63 be 83 1c 47 be 74 0e ec bc 29 dc 06 be
       -0.2223135 -0.1944447 -0.028815486 -0.13169922
000230 e6 e2 be bd 0e 23 bd bd 45 5f 6f 3d 1c 9c 4b be
       -0.09320621 -0.09235202 0.058440465 -0.1988377
000240 20 ce 0b 3e b6 60 1f bd 74 56 03 3e 40 d9 f8 bc
       0.13652849 -0.03891059 0.12825948 -0.03037703
000250 a5 e0 7a 3d fd d8 93 bd 94 e1 41 bc 8c d8 6b be
       0.061249394 -0.072191216 -0.011833567 -0.23031825
000260 1d 2a 4e be 2c b5 bb 3d 48 d5 85 3d e4 48 15 3e
       -0.20133252 0.09165415 0.06534821 0.14578587
000270 4d 4d 8b 3d 1b b5 f9 3c 50 55 a8 3d 63 4a e5 bd
       0.06801853 0.030481866 0.08219397 -0.11195829
000280 fa 05 34 bd 04 e5 86 bd 02 ba 88 bd 40 bd 5e be
       -0.043951012 -0.0658665 -0.06676103 -0.2175188
000290 0d 2c 50 bd 58 8d 1a bd 5d a0 d2 3d 83 c0 38 be
       -0.05082326 -0.037732452 0.10284493 -0.18042187
0002a0 2a cf ac 3c 0a 42 d3 bd 3c 86 2a be a7 c7 c0 3d
       0.021094877 -0.1031533 -0.16652769 0.09413081
0002b0 e5 2c f1 3c 5d be 3e be ad d1 5a 3d a6 8e bf bc
       0.029440353 -0.18627305 0.05342262 -0.02338345
0002c0 52 91 db bc a6 86 9d bd ec 35 b1 bd d2 dd 94 be
       -0.026802693 -0.07691698 -0.08652863 -0.29075485
0002d0 b1 89 9a bd b5 de ee 3d c6 60 74 3e 26 d9 1e 3e
       -0.07545794 0.11663572 0.23865041 0.15512523
0002e0 67 e4 10 3e ff 4b 23 bd 13 43 3c 3c 52 01 0b bd
       0.14149629 -0.039867397 0.011490601 -0.033936806
0002f0 91 58 71 3d 79 bd ba bd c9 38 6d 3e 89 b5 5a bd
       0.058922354 -0.0911817 0.23166193 -0.05339578
000300 f4 33 b7 3d c5 76 08 3d b2 0e aa bd a4 b0 6f b9
       0.08945456 0.033316392 -0.08303584 -0.0002285862
000310 4d b4 54 3e 9e 79 d2 3c 13 6c d3 bd 04 0b fe bd
       0.20771904 0.025692757 -0.10323348 -0.12404445
000320 01 60 9e bb da 84 18 3e 1f 0f 48 3c b3 9b ea bc
       -0.004833222 0.14894429 0.012210636 -0.028638696
000330 8a 01 bb 3c 8d e1 93 3d 89 9a fd 3d a6 95 17 3e
       0.022827882 0.07220755 0.12382991 0.1480318
000340 5e e3 97 3d 8b 6f 88 3b 72 4b 52 3d 5b 65 af bc
       0.07416414 0.0041636876 0.05134148 -0.021410635
000350 21 ff a6 bc 08 9a 89 bc 0b 7b 9f bc 9c cb f6 3c
       -0.020385327 -0.01679708 -0.019467851 0.030126385
000360 71 bd 98 bd 19 8e 8d 3d c7 02 12 3e 8e 13 5d 3c
       -0.07458008 0.069118686 0.14258872 0.013493432
000370 05 c4 f5 bc bc 48 06 be db 1a e1 bd 28 99 a7 bb
       -0.030000696 -0.13113683 -0.109914504 -0.005114693
000380 ba a8 84 3d d6 61 25 bc 6e d6 a1 3d ef a5 b4 3c
       0.064774945 -0.010094127 0.07902227 0.02205178
000390 b0 e9 3e 3d b7 38 62 bd 79 2c b6 3d 55 a2 69 3b
       0.04660958 -0.05522987 0.08895201 0.0035649736
0003a0 9e 68 24 be 55 8e a1 3d 0f e7 75 3e db b6 5b 3c
       -0.16055533 0.07888476 0.24013923 0.013410295
0003b0 2d ee 23 3e 3d 5e ab 3d d7 d7 38 3d fe 5f fc bc
       0.16008826 0.08367584 0.045127716 -0.030807491
0003c0 74 04 b8 bd 48 29 60 be 46 aa a5 bd 42 40 6a 3d
       -0.08985224 -0.21890748 -0.08089118 0.057190187
0003d0 b7 d7 6e 3c d1 41 b9 bd 2f e1 38 3c 20 58 bb 3c
       0.014577798 -0.090457566 0.011284157 0.02286917
0003e0 b7 ed ab 3b cf 21 e6 bd aa 6b 02 be 51 d4 1c bd
       0.0052468437 -0.11236917 -0.12736383 -0.03828842
0003f0 f7 74 13 bc 4a 30 34 3d 70 5e 4c 3d d8 8f b8 bd
       -0.009000055 0.043991365 0.04989475 -0.09011811

layer2.0.bn1.weight f4 [32]
000000 af 5a 5c 3f 9f 32 66 3f 56 ff 80 3f 3a e6 84 3f
       0.8607587 0.8992099 1.0077922 1.038276
000010 9f c2 80 3f 9f 45 8e 3f 61 6a 6e 3f e6 a1 78 3f
       1.0059394 1.1114997 0.9313107 0.9712204
000020 24 13 4e 3f a9 ed 7e 3f 74 cf 73 3f ef ed 92 3f
       0.80497956 0.9958139 0.95238423 1.1478862
000030 cc 1d 84 3f 96 a0 6f 3f 46 46 85 3f 17 13 84 3f
       1.0321593 0.9360441 1.0412071 1.0318326
000040 71 95 7c 3f 77 8a 64 3f cf 1f 6e 3f 23 87 81 3f
       0.9866553 0.8927378 0.93017286 1.0119365
000050 2a e6 6f 3f 72 c8 8a 3f 9f 72 5e 3f eb 5e 85 3f
       0.9371058 1.0842421 0.8689365 1.0419592
000060 c2 16 5f 3f 5c df 5c 3f 75 fb 80 3f 79 44 6b 3f
       0.871441 0.8627832 1.0076739 0.91901356
000070 5b c0 86 3f dd a1 80 3f 52 fa 76 3f e7 68 72 3f
       1.0527452 1.0049397 0.9647571 0.9469132

layer2.0.bn1.bias f4 [32]
000000 ce b4 3b be 1f 99 1d be f4 fb 64 be 9c 6d d7 be
       -0.1833069 -0.15390442 -0.22361737 -0.42075813
000010 9b 99 cf bd d5 e5 4d be 41 7c 51 be ea 20 ca bd
       -0.1013672 -0.20107205 -0.20457555 -0.09869559
000020 fd 3f 23 be f2 58 0d be 77 1d 84 be 7d f2 99 be
       -0.15942378 -0.13803461 -0.2580373 -0.30067816
000030 25 d4 76 bd 5b 55 ad be 10 57 0f be 35 d2 c3 be
       -0.06026091 -0.33854184 -0.13998055 -0.38246313
000040 8e 0a a5 bd 56 30 29 be bb 4a 5f bd 10 ad ff bd
       -0.08058654 -0.16522345 -0.054514628 -0.12484181
000050 c6 dc 3e be 13 f6 3c be ff cf c9 bd 7b eb 18 be
       -0.18638906 -0.18453245 -0.09854125 -0.14933579
000060 e8 e0 8e be 47 e4 c5 bd ca c1 8d bd 5f b3 16 be
       -0.27905965 -0.09662681 -0.06921728 -0.14716862
000070 ca cf fd bd 01 33 3b be 52 e8 74 be a1 03 55 be
       -0.12393148 -0.18281175 -0.23916748 -0.20802166

layer2.0.bn1.running_mean f4 [32]
000000 ef e5 49 bf ba 72 15 3e 61 67 fb be b2 da 6c be
       -0.78866476 0.14594546 -0.4910231 -0.231303
000010 55 f0 7d be 0d ff 1e bf 42 94 29 bf 0c c9 e9 bf
       -0.2479871 -0.62107927 -0.6624185 -1.826448
000020 fa bb b9 3f 98 2c 8d bf 74 51 42 bb 6d b5 68 bf
       1.4510491 -1.1029234 -0.00296506 -0.90901834
000030 f3 e6 1a bf d9 d1 94 3f 3d 07 1c c0 32 92 87 bf
       -0.6050865 1.162654 -2.4379418 -1.059149
000040 c6 99 08 c0 ea 27 09 3f 26 88 a6 bf 04 53 4f bf
       -2.1343856 0.5357653 -1.3010299 -0.80986047
000050 6e 56 9b 3f ca 65 dd bb 30 40 c7 bf eb d5 a6 bf
       1.2135751 -0.006756519 -1.5566463 -1.3034033
000060 38 d5 17 3f 2d 10 c3 3f b5 2f cc bf 79 7f 97 bf
       0.5930972 1.5239311 -1.5952059 -1.1835777
000070 11 85 ec bf ce 87 a3 bf b0 a0 c8 3d d5 d0 8f bf
       -1.8478109 -1.2775819 0.09796274 -1.1235605

layer2.0.bn1.running_var f4 [32]
000000 87 86 2c 40 1c 5f 9b 3f 5b d5 d5 3f da 89 d6 3f
       2.695711 1.21384 1.6705736 1.6760819
000010 dd 2d d8 3f e4 10 21 40 2c cb 05 40 c1 7a d7 3f
       1.6888996 2.516656 2.0905256 1.6834337
000020 79 9f 08 40 68 6c 8c 3f 34 6d 02 40 80 f7 37 40
       2.1347334 1.0970583 2.0379152 2.8744812
000030 5e 34 c0 3f c0 a7 15 40 ad 99 26 40 ef 1c db 3f
       1.5015981 2.3383636 2.6031296 1.7118205
000040 e1 a1 e8 3f 9d ec 89 3f e8 f4 31 40 f4 fc de 3f
       1.8174402 1.0775334 2.780573 1.7420945
000050 01 1c b4 3f 5d 1c f4 3f 07 a4 e6 3f aa 5f 13 40
       1.4071046 1.9071156 1.8018807 2.3027139
000060 b0 ff 02 40 fc f6 10 40 12 77 14 40 02 6f dc 3f
       2.046856 2.2650747 2.3197675 1.7221377
000070 58 42 2c 40 87 31 16 40 1d 56 f1 3f 58 df aa 3f
       2.6915493 2.346773 1.8854405 1.3349409

layer2.0.conv2.weight f4 [32, 32, 3, 3]
000000 96 e9 c9 3d ad 74 6f 3c 5c ab 8e bd e0 40 3c 3e
       0.09859006 0.01461522 -0.06966278 0.18384123
000010 6d 58 8f bd 14 b2 42 bc c9 f5 9a bd dc d4 e7 bd
       -0.06999288 -0.011883277 -0.07566411 -0.113198966
000020 6b 04 18 bd 49 37 bd bd 14 77 30 bd d0 18 27 bd
       -0.03711359 -0.092390604 -0.04308231 -0.040795147
000030 e8 6d 84 bc a0 d1 88 bd ea 09 bf bd ec 2d e8 bd
       -0.016165689 -0.06680608 -0.09328063 -0.11336884
000040 59 89 08 3e 79 0c 43 bd c4 4a d1 bd 13 c1 4c 3d
       0.13333644 -0.047619317 -0.102193385 0.049988817
000050 07 8d 96 3c c9 19 8b bd e2 70 9e bd 8c 11 83 bd
       0.018377794 -0.067920275 -0.077363744 -0.06399831
000060 46 b4 ca bd 84 ba 85 bd f1 14 7f 3c 48 ec 36 be
       -0.09897666 -0.06529716 0.015568958 -0.17863572
000070 4e 1f 09 bd bf 3d 41 3d d1 60 1f be 55 53 94 3d
       -0.03347712 0.047178026 -0.15564276 0.07242457
000080 74 a5 1c be 5a aa 9c 3d 60 f4 01 3e da e1 6c 3c
       -0.1529749 0.076496795 0.12690878 0.014458144
000090 81 b4 d5 bd 7e 7a 37 bd b9 25 b1 bd f6 56 b9 3d
       -0.10434819 -0.044794552 -0.08649773 0.090497896
0000a0 90 0a bd 3d df 2b cd 3d 67 ae 99 bd 5b b1 95 bc
       0.0923053 0.10018133 -0.07503968 -0.018273046
0000b0 13 73 8a bc e7 71 9a 3c 5b 3a a6 bd 37 25 e6 3c
       -0.016900575 0.018853141 -0.08116599 0.028093917
0000c0 0a c8 99 3d f6 89 c8 3d 0a 14 56 bd e9 37 0a 3e
       0.075088575 0.09791939 -0.052265204 0.1349789
0000d0 9a 25 02 3e 91 88 d0 bd d1 6a 43 3d 4e 1e 00 3c
       0.12709656 -0.10182298 0.04770929 0.007819725
0000e0 88 59 b2 3d de 7f 10 3e 2e ce 5b bd aa 30 d4 3d
       0.08708483 0.14111277 -0.053663425 0.103608444
0000f0 19 cd 13 3d 76 b4 a7 3d 6d 45 8d 3d 75 19 5d bd
       0.03608427 0.08188717 0.068980075 -0.053979356
000100 84 8a 90 3d 2c 5c a5 bd 9b 04 3b 3e 5d d5 24 bd
       0.0705767 -0.08074221 0.18263476 -0.04024254
000110 c2 5b dd bd c3 72 42 bd f8 04 19 be 20 0e 8c 3d
       -0.10808517 -0.047472727 -0.14943302 0.06838632
000120 22 dd 87 3d 8e 34 95 bd 96 cf 13 3d a8 8b 35 be
       0.066339746 -0.07285415 0.03608664 -0.17729056
000130 59 03 03 be b9 dd 29 3d b5 d5 98 bd fa 8b 60 3c
       -0.12794246 0.041471217 -0.074626364 0.013705248
000140 71 e7 55 be a4 4d 3e bd 4d 6b 87 bb ec 64 d0 39
       -0.20889069 -0.046460763 -0.0041326643 0.00039748044
000150 30 e4 1f bc 55 c9 5b 3d f6 4c db 3b 8d 7f 48 be
       -0.009758994 0.053658802 0.006692524 -0.19579907
000160 e3 50 3c 3e 49 ac 14 3e 64 af 4a 3d 66 5e 3c 3e
       0.18390231 0.14518847 0.04948367 0.18395385
000170 2e c7 f0 bd e9 50 79 bd 0d 40 71 3d ec 47 01 ba
       -0.117567405 -0.060868178 0.058898974 -0.00049316767
000180 63 47 40 3e 5d 00 0b 3e 3d e7 c7 3b 86 93 4e 3b
       0.18777232 0.13574357 0.006100564 0.0031521036
000190 f0 08 21 be 4c 83 6c bd dd 3c 19 3c 78 bf 42 3d
       -0.15726066 -0.057742402 0.00935289 0.04754588
0001a0 66 60 a0 3d d4 a8 0c bd 98 0d 04 3e 81 52 57 bd
       0.078308865 -0.034340695 0.1289581 -0.052568916
0001b0 fd 35 1a 3d 38 f8 78 bd a0 04 05 3d 02 fe a2 bc
       0.037649143 -0.060783595 0.032475114 -0.019896511
0001c0 31 58 0e 3e fc ea 96 3d 29 80 b0 3d 6b c9 bd 3d
       0.1390083 0.073690385 0.086181946 0.09266933
0001d0 f2 f7 23 bd 80 c6 e7 bd 23 ad 05 3c 47 fc c3 bd
       -0.04003138 -0.11317158 0.008158955 -0.095696025
0001e0 3e a1 ed bd 68 01 06 3d a1 97 72 bd 3e 82 f4 3d
       -0.1160302 0.032716185 -0.059226636 0.11938904
0001f0 7f 35 0d 3e fb f2 0e bd fa 0f ec bc 63 f0 c6 bc
       0.13789938 -0.034899693 -0.028816212 -0.024284547
000200 73 1e 48 be 80 7a dd bd e8 27 a6 3c 5e af db 3c
       -0.19542865 -0.10814381 0.0202827 0.02681702
000210 4e 05 04 be 49 b8 96 3c 07 34 65 bb 40 9a 1c 3e
       -0.12892649 0.01839842 -0.0034973638 0.15293217
000220 fa de d1 3c 2b 05 08 3e 17 aa b4 3e 95 71 2b 3d
       0.025619019 0.13283221 0.35286018 0.041856367
000230 f6 07 44 bc f8 e6 21 b9 0e f6 d6 bd 5c 6a c0 3d
       -0.011964789 -0.00015440199 -0.1049615 0.093952864
000240 43 92 1b 3c 2d b0 37 3c 25 65 05 bd bf 08 c1 3c
       0.009495321 0.011211437 -0.032567162 0.02356374
000250 9e 4b bc 3d 4b e3 3c 3e bf 57 8e bc ad a6 03 3e
       0.0919411 0.1844608 -0.017375825 0.1285655
000260 ee b8 4b 3e f2 63 8d 3d 22 93 82 3d bd e4 0e 3e
       0.19894764 0.06903829 0.063757196 0.13954444
000270 7d 85 86 3c bf bb 2c be 52 9c 16 3e fb e0 09 3e
       0.016421074 -0.16868494 0.14708069 0.1346473
000280 39 ca 09 bd 72 7b 2d 3d 38 1a 23 be 50 cd af bd
       -0.03364012 0.042354055 -0.1592797 -0.08584082
000290 8b 48 aa bd 17 87 0e be d4 9c c0 bb b1 c5 33 be
       -0.08314618 -0.1391872 -0.0058780704 -0.17555882
0002a0 b1 a6 41 be 97 06 68 3c 1e 7f 78 3e 14 13 53 be
       -0.18911244 0.014161727 0.24267241 -0.20612746
0002b0 b5 db ce bc 5e d8 1c be ca 72 3a bc f7 ea 22 bd
       -0.025251249 -0.15316913 -0.011379907 -0.03977486
0002c0 9b 5e d0 bd b2 00 d2 3d e5 42 f7 3d 93 ad dc 3d
       -0.101742946 0.10254039 0.12073306 0.10775294
0002d0 fa 48 85 bd 22 e7 23 be 02 bf f6 bd 6d 60 ef 3c
       -0.0650806 -0.16006139 -0.120481506 0.029220784
0002e0 87 e7 a5 bb 0d 1b 63 be f8 aa b8 3c 00 a9 61 bd
       -0.0050630006 -0.22178288 0.022542462 -0.05509281
0002f0 d0 3e 1b be 0a ab a4 3d c9 b3 c2 3d 5b 72 f0 ba
       -0.1516068 0.080404356 0.095069475 -0.0018344627
000300 3b 60 c0 3d 3e a2 9d be 61 86 3d be 71 28 45 3d
       0.093933545 -0.30787843 -0.18508293 0.04813427
000310 17 74 11 bd 94 42 c6 bd 13 d4 f5 3b 26 a6 09 ba
       -0.035511103 -0.096806675 0.007502088 -0.00052508933
000320 e0 1f 83 bc 24 df 0f 3e c3 48 1e be b8 04 03 3d
       -0.01600641 0.14049965 -0.15457444 0.031986922
000330 e2 43 39 bd c6 b4 52 be a4 40 34 be e9 b2 bd bc
       -0.045230754 -0.20576772 -0.17602783 -0.0231566
000340 0d 3f 04 3d d8 96 72 3d 56 11 cb 3d 1c 76 b0 3d
       0.032286692 0.059225887 0.09915416 0.086162776
000350 8e b6 d7 bc 4b ec 9a bc 7a ad 67 bd a6 f7 3d be
       -0.026332166 -0.018911501 -0.056561925 -0.18551502
000360 8d a9 1e 3d cb 51 51 3a cf 9a 17 be 84 92 66 3c
       0.038735915 0.00079849054 -0.14805149 0.014073018
000370 6c 52 e8 3d 4e fe 3f be 76 c2 0a be ca e8 fe bd
       0.11343846 -0.18749353 -0.13550743 -0.12446745
000380 0d 8e 21 bc ab ba 5c 3d e4 fe dc 3d 53 d4 44 be
       -0.009860528 0.053888958 0.10790804 -0.1922162
000390 79 56 60 3d 63 7e 68 bd 4c 56 57 be 82 4a 5d 3d
       0.054769967 -0.056761157 -0.21029013 0.054026134
0003a0 f8 ad eb bc 93 a6 64 be 82 64 23 be 57 43 f9 bd
       -0.028769478 -0.22329168 -0.1595631 -0.12171047
0003b0 c0 09 74 bd 9b 58 63 be 94 75 82 be 00 fb 21 be
       -0.05957961 -0.22201769 -0.2548033 -0.15818405
0003c0 33 0b 2f be 6e bb b5 bb ee 5f 71 be e6 fb 10 bc
       -0.17094116 -0.005546025 -0.2357175 -0.00884912
0003d0 f3 b0 a2 3d 80 e6 0f 3d 26 63 01 3e 5a 40 19 bd
       0.07943907 0.03513193 0.12635478 -0.037414886
0003e0 fb 94 ca bd 1b d5 b0 3d 4b 3a dd 3d 81 ab 96 bd
       -0.09891697 0.08634397 0.10802134 -0.073569305
0003f0 09 d8 68 be 12 e6 96 bd 76 61 14 3e 05 5c 86 bd
       -0.22738661 -0.07368101 0.14490303 -0.0656052

layer2.0.bn2.weight f4 [32]
000000 08 55 97 3f bd d2 84 3f 18 3a 91 3f d3 7a 93 3f
       1.1822824 1.0376812 1.1345854 1.1521858
000010 5d 1e 88 3f c4 2d 82 3f 33 fb 87 3f fe 22 88 3f
       1.0634266 1.0170217 1.0623535 1.0635679
000020 45 cc 84 3f 59 91 6d 3f 89 10 84 3f 06 b8 92 3f
       1.0374838 0.9279991 1.0317546 1.146241
000030 74 72 8d 3f 31 6d 97 3f d7 3f 82 3f 20 3a 92 3f
       1.1050553 1.1830198 1.0175732 1.1423988
000040 12 8c 83 3f 27 24 94 3f 30 b7 93 3f 8d 38 85 3f
       1.0277121 1.1573533 1.1540279 1.0407883
000050 a9 2c 83 3f bd 35 8f 3f 08 39 8b 3f 60 51 8f 3f
       1.0248004 1.1188275 1.087678 1.1196709
000060 26 c4 92 3f a8 f1 8f 3f 2c 63 7f 3f fa eb 8a 3f
       1.146611 1.1245623 0.997607 1.0853264
000070 5b 65 6c 3f d7 e0 85 3f 09 9d 8e 3f 9d 1d 86 3f
       0.92342156 1.0459241 1.1141673 1.0477787

layer2.0.bn2.bias f4 [32]
000000 74 91 72 be c8 33 36 be 96 3f 65 be 00 71 1a be
       -0.23688298 -0.1779319 -0.22387537 -0.15082169
000010 34 a2 30 be da 7c 41 be 8b b7 28 be ab 03 14 be
       -0.17249376 -0.18895283 -0.16476266 -0.14454524
000020 2a d5 ef bd a4 02 55 bd fc 3a 2f be 27 59 8e bd
       -0.1171058 -0.05200447 -0.17112345 -0.06950598
000030 f1 91 8e be 78 7c 20 be 9b 41 45 be 16 da 85 be
       -0.2784572 -0.15672481 -0.19263308 -0.2614295
000040 00 4d 84 be d1 3b 5a be 21 5c 8c be 3d ff 67 be
       -0.25839996 -0.2131188 -0.2741404 -0.2265596
000050 56 c1 5b be bd 1c 5a be c0 66 23 be 5e 1f 7c be
       -0.2146047 -0.21300025 -0.15957165 -0.2462134
000060 c6 dd 28 be ce 03 44 be a6 af 80 bd 7b 0e 43 be
       -0.1649085 -0.19142076 -0.06283502 -0.19048493
000070 fe 82 2e be ec 72 2b bd bd 84 89 be f2 2e 2a be
       -0.17042157 -0.041857645 -0.26859084 -0.1661947

layer2.0.bn2.running_mean f4 [32]
000000 ac e2 84 bf 1a e3 d5 bf d0 fb 8d be 82 e6 27 bf
       -1.0381675 -1.6709931 -0.2773118 -0.655861
000010 22 77 14 bf 57 1d 61 bf ff fc e7 3e 2e 93 a0 bf
       -0.5799428 -0.87935394 0.45310208 -1.2544916
000020 6f 85 1a bf f3 a0 00 c0 d2 02 eb be 1e 3c 3a bf
       -0.60359854 -2.0098236 -0.4590059 -0.7274798
000030 68 a3 84 bf 5d 22 a4 bd 1c 23 8e 3e 07 cd e2 3e
       -1.0362368 -0.08014367 0.2776116 0.44297048
000040 46 1f 89 be ba 06 59 bf 5c b4 c2 3f 12 11 04 3f
       -0.26781672 -0.8477589 1.5211291 0.5158855
000050 3c 4f 1f 3f 4c a3 01 c0 0e 17 7d bf c9 06 72 bf
       0.6223028 -2.0255919 -0.98863304 -0.94541603
000060 f3 6d 82 bf d4 a8 ec 3d 32 ad 02 3f d0 2c 79 bf
       -1.0189804 0.11555639 0.51045525 -0.97334003
000070 08 ce 0b bf 8c 8f 0a 3e a5 32 3c 3d 7d 55 26 3f
       -0.54611254 0.13531321 0.045946736 0.64974195

layer2.0.bn2.running_var f4 [32]
000000 4e c0 55 3f c9 2b 90 3f b8 56 44 3f fd f5 c0 3f
       0.8349656 1.1263362 0.7669482 1.507507
000010 bc a8 7a 3f e2 8f a1 3f 4e 75 6e 3f ea 1e ac 3f
       0.9791372 1.2622035 0.9314774 1.3446934
000020 9c 74 a5 3f a7 7c 08 40 00 ea af 3f cb 85 79 3f
       1.2926211 2.1326082 1.3743286 0.97469777
000030 a8 78 7c 3f 23 05 bd 3f aa 50 80 3f 28 e3 7f 3f
       0.98621607 1.4767193 1.0024617 0.9995599
000040 9e d7 4d 3f e9 91 3c 3f e8 02 6d 3f 6a 97 3d 3f
       0.8040713 0.7366014 0.9258256 0.74059165
000050 25 ae 94 3f 4d 74 cb 3f 62 fa c0 3f a5 b5 a4 3f
       1.1615645 1.5894867 1.5076411 1.2867934
000060 b0 32 65 3f 67 24 58 3f e3 2c b8 3f 6b ac b6 3f
       0.8953047 0.84430546 1.4388698 1.4271368
000070 48 7c 47 3f f2 f9 96 3f 99 37 6b 3f 02 19 78 3f
       0.77924013 1.1795027 0.9188171 0.9691316
